weights/nplm.pt (torch, 861311 bytes, 6 tensors)

H f4 [32, 16]
00000000: 1df2 cdbf 376f 9bbf a84e 0d3e 7155 39be
00000010: 840c ac3e 1831 91bf 6b12 f2be d022 2ebf
00000020: 8068 94bf 8ce2 5ebe a54d ccbf c60f 70bf
00000030: 87df cabf f890 22bf 05a7 31be 16e1 7a3e
00000040: 1aab 1cc0 6898 f3bf 4406 19bf 00ab afbe
00000050: a272 ef3e 8b58 b7bf cba3 583f 060d d1bd
00000060: cf58 343e 144c d1be 5e33 43bf 31ea 5fbe
00000070: f1d9 1ac0 832e 223f 4f20 b13f 5732 8e3d
00000080: 68ab b0bf b02f 7a3f 34a3 69bf 6bd5 86be
00000090: dcba e2bd 4c5b b83f 7111 0ac0 8796 173f
000000a0: a64b 803e 6a70 4ebf b846 fabe 3109 5b3f
000000b0: 848c 2c3f 20ec 0c3f 37cd 153f ed93 9d3f
000000c0: f693 27bf d24c 95bf e6b7 90bf ad14 103f
000000d0: 3785 37c0 20d2 dcbf 3f48 e9be 5bf3 24be
000000e0: 40be 21bf cdd7 7fbb dcce 2d3f 8f50 6b3f
000000f0: ab8e 803f 26e0 4a3f 8724 c3bf 4c77 80bd
00000100: 83e8 0040 c2c6 ccbf 2b05 003f a72d 29bf
00000110: 6bbf adbf fb71 993f 3063 0a3f 0163 233e
00000120: aab9 a33e a10f c3be 81f9 72bf b652 cd3f
00000130: 8be1 13bf 75ed d03f 3ac8 a63e e42b 5ebf
00000140: ef29 a0bf 9ddd 0f3f 71df d4be fa94 15bc
00000150: 1f28 153f 344b dfbf 11aa 52bf 2e82 4d3d
00000160: b452 da3e 1b61 323f 3d1d af3d 57b8 8b3f
00000170: d773 fabf 976f b63d b0e3 423f 2f9f c7bf
00000180: 6bf7 fcbe d02a a03e f490 d3bf a171 1c3f
00000190: c635 81bf cef4 883e 6954 8d3e b99e e6bf
000001a0: 7ae6 bc3f 4350 c03e 6a03 c23d 117a 3ebf
000001b0: 96eb b3bf 23a4 49bf b60b 803e 3c4b 6abf
000001c0: afcb 1e40 5a29 5ebf 23bd 94be 2c89 bc3f
000001d0: 50d1 d9be dd0f d0be 420f d93e 0332 c33d
000001e0: 210c 73bf c48b 303f 474a acbf 715e 2a3f
000001f0: a149 803f f4ab 393f a6e3 b6bf 8a1b dd3c
00000200: af6b 3d3e d726 b93f 8463 12bf c295 82bf
00000210: cdbe 6fbe ec87 ec3f 8978 0ebf 4c5c 6bbf
00000220: 99a1 903f fbe8 33bf 93e9 8c3f 5043 7b3f
00000230: e51f 003a 284e 22be f2aa fd3e 709c 7b3f
00000240: bb70 bf3f 7c68 f03e 65f3 82be bc8b 053f
00000250: 6197 273d 7b9e 1c3e 5f0e dbbf d790 ef3f
00000260: c114 433f 1546 3140 76ab b7be d8e2 763f
00000270: d394 1b3e 2abf 353e bc43 19be 9225 593e
00000280: c63a 863e 7172 3bbe ba60 443f b9c6 e23e
00000290: 6279 2740 3a7e cabe ec7b 563f f7d7 443f
000002a0: ebf6 fbbf ef93 7f3e e1a4 d0bd d2ab 123f
000002b0: c349 75bf 87b1 c53f 0c11 42bf 2932 973f
000002c0: c1bc fa3e f2ba a83f 1b16 46bb 7dad fdbf
000002d0: 14fe d9be e166 9d3f 6dac 743f a78f 953f
000002e0: 8250 edbd 4736 ce3d 331b 20be ae94 dd3f
000002f0: de51 c2bf faa2 c5bf b2b0 ae3f 46e6 b4bf
00000300: fece 22be 8662 b63f 80da 603f a63f 2340
00000310: 972e bcbd 1002 103f 2016 92bf fef4 c7bf
00000320: e183 233f 5054 0dbf 18a3 a8bc 8f23 983f
00000330: a3af 5c3f b56a c7bf 7a30 8fbe 58dd e0bf
00000340: 9790 4d3f 45c2 b4be 95d6 e03e fc94 363e
00000350: f7c9 9bbf e1a5 c9bc 7598 19bf a6f3 8dbe
00000360: b880 02c0 8a0d 04bf 9296 02bf 7f00 1340
00000370: c9d9 3fbe d1bd 593f 74af 8e3e 6ba5 c13d
00000380: f052 32c0 6ff1 c13f 4b44 c03e 1be9 09be
00000390: 2c23 5f3f 6bc2 013f a659 16c0 9ebd 0d3f
000003a0: 8672 c83e 347b 2bbf 628e 1cbf 700c 623f
000003b0: d703 d83e bd31 6e3f c53d ddbf f4d7 383e
000003c0: e6fb 4d3f 3f0e d83e 3297 263c 24ae 063f
000003d0: eb2c e93e d3ae edbe 3932 3c3f 3c2f 0c40
000003e0: 5fe3 653f 42b1 77be de34 f73f d812 b13f
000003f0: 09cd 8dbf 875b b5be 16b6 343f 8ef7 133f
-1.6089512 -1.2143315 0.13799536 -0.18099 0.336033 -1.1343107 -0.47279677 -0.6802187
-1.1594391 -0.21766108 -1.5961195 -0.9377407 -1.5849465 -0.63502455 -0.17348869 0.24499926
-2.4479432 -1.9030886 -0.59775186 -0.3431015 0.46767145 -1.4323896 0.8462493 -0.10207562
0.17612003 -0.40878356 -0.76250255 -0.2186668 -2.419552 0.6335222 1.3837985 0.06943195
-1.3802309 0.97729015 -0.91264653 -0.263347 -0.11070797 1.4402862 -2.1573145 0.5921406
0.25057715 -0.8064028 -0.4888208 0.855609 0.6740191 0.550478 0.5851626 1.2310768
-0.65460145 -1.1664069 -1.1306121 0.5628155 -2.8675058 -1.7251625 -0.45562932 -0.16108458
-0.63180923 -0.003903854 0.6789377 0.919198 1.0043539 0.79248273 -1.5245522 -0.06272754
2.0141914 -1.5998156 0.50007886 -0.66085285 -1.3574041 1.1987909 0.540576 0.15955736
0.31977588 -0.3809786 -0.9491196 1.6040866 -0.57766026 1.6322466 0.32574636 -0.8678572
-1.2512797 0.5619753 -0.41576722 -0.009129757 0.58264345 -1.7444825 -0.8229075 0.050172977
0.42641222 0.6967942 0.08550499 1.0915631 -1.9566602 0.08908003 0.76128674 -1.5595454
-0.49407515 0.31282663 -1.6528611 0.61110884 -1.0094535 0.2674927 0.27603462 -1.8017188
1.4757836 0.37561235 0.094733074 -0.7440501 -1.405627 -0.7876608 0.25008935 -0.9152105
2.4811819 -0.8678185 -0.2905055 1.4729362 -0.42542505 -0.40637103 0.42394453 0.09531023
-0.9494038 0.68963265 -1.3460168 0.66550356 1.002247 0.72528005 -1.4288223 0.02699067
0.1849811 1.4464978 -0.571831 -1.0201952 -0.23412628 1.847898 -0.5565267 -0.9193771
1.1299316 -0.70277375 1.1008781 0.98149586 0.0004887565 -0.15850127 0.49544483 0.9828558
1.4956278 0.46954715 -0.2557632 0.5216634 0.04091585 0.1529483 -1.7113761 1.8716077
0.7620354 2.7699025 -0.35873002 0.96439886 0.1519349 0.17748705 -0.14967245 0.21205738
0.26216716 -0.18305375 0.76710093 0.44292238 2.6167836 -0.39549428 0.8378284 0.76892036
-1.9684728 0.24958776 -0.10187698 0.57293427 -0.95815676 1.5444802 -0.7580726 1.1812183
0.48972133 1.3182051 -0.0030225578 -1.981857 -0.4257666 1.2297021 0.955756 1.1684464
-0.11587621 0.10068946 -0.15635376 1.7310998 -1.5181234 -1.5440361 1.3647673 -1.4132774
-0.15899274 1.4248817 0.87833405 2.5507598 -0.09188574 0.5625315 -1.1413002 -1.5621641
0.63873106 -0.55206776 -0.020585582 1.1885852 0.862055 -1.5579439 -0.27966672 -1.7567549
0.8029875 -0.35304466 0.43913713 0.1783027 -1.217101 -0.02461523 -0.59998256 -0.27724952
-2.0391064 -0.5158316 -0.51011 2.2969053 -0.18735422 0.8505526 0.27868235 0.09455379
-2.786312 1.5151805 0.37552103 -0.13467829 0.87163043 0.50687283 -2.3492217 0.5536746
0.39149874 -0.6698487 -0.6115476 0.8830023 0.4219043 0.93044645 -1.7284476 0.1805113
0.8046249 0.4219837 0.010167884 0.5260947 0.45542082 -0.46422443 0.73514134 2.190383
0.89800066 -0.24188712 1.9313009 1.3833876 -1.1078197 -0.35421392 0.7059034 0.57799613

d f4 [16]
00000000: f1ce e8be 07f1 a4be 7af0 fd3e 5445 853f
00000010: 5bca 2e3f 4d4c 873f 7607 ee3e b4f1 1dbc
00000020: 8c5b adbf a9a8 43bf 1fec 293f 7a1a d43f
00000030: b285 a4bd da40 e43e 1ff5 3cbd 6fb8 aa3e
-0.45470384 -0.3221514 0.49597532 1.0411782 0.6827752 1.057016 0.46490067 -0.009640146
-1.3543563 -0.7642923 0.6637592 1.657058 -0.08033313 0.44580728 -0.046132203 0.33343837

U f4 [16, 3298]
00000000: 955a 173f dd03 f83f e723 24bf ae58 e93d
00000010: 53fc 833f 9640 edbe cfbd 9bbf ca9b f13e
00000020: 7005 2fbf 9dcd d03f a5ed d53f eba4 c03f
00000030: 9b8f 91bc 8f22 ef3e 6c09 953f 631f 34bf
00000040: eceb 1dc0 67e9 adbf b9bb d43f 5232 34bf
00000050: e263 b13f 93cc 05bf 5ffc 4bbf 70c9 33be
00000060: 352e 843f 50cc f33b 0b02 a53d e1f3 24bf
00000070: c75a 19bf c73c 99bf 82e3 c43e 777a 76bf
00000080: e7d5 07be 4c95 c6bf a8a5 d93e 2a85 0ebf
00000090: 6b03 743e 6ca8 f63e 8bbe 5abf dc7b 9b3f
000000a0: 9229 6dbd 122e 0bbf 049e 263f b520 8cbb
000000b0: 2978 81be 826a 753f 68ad 483e 94b4 2340
000000c0: fb2d e2be 1833 b5bf 835d 9f3f 5928 813f
000000d0: 2cdd 823f 9864 34bf 1e26 17c0 c70f 613f
000000e0: c2f9 953e 5b1a 77be 2540 7bbf b7ba ca3f
000000f0: 916c 823f 3051 c2bf 1ddf 963f 96b9 69be
00000100: 9182 003f 0144 603f 5fde 4e3e 15ef 84bf
00000110: 347a d43d c1d4 9c3f 6bbc e8be 8675 9ebf
00000120: f2c4 323f 36bb 81bf 35f5 c3bf f997 833f
00000130: f6b1 393f b964 8d3e e5c4 a9bd ff8a 503e
00000140: cabe 8ebf 2c93 fb3e 1d3e 593e a38f 6f3f
00000150: 14bd 043e 91dc 5cbd d22c 13bf caa4 9dbf
00000160: 3586 d43f ce03 113f 3566 26bf 7e1d 223f
00000170: 9375 25be c16f 94bc 130d dd3c 7fd9 50bf
00000180: ac68 9ebf a2ad 683e df24 463f 0bbc 7b3f
00000190: b14d a93e f04d 3e3f eec1 ca3f 2fcb e1bc
000001a0: 4aa0 c8be 280d 003f 6d27 9b3e 121b 803f
000001b0: 2de7 f5bc 0974 7dbf f81e 56bf 020d 91bf
000001c0: 80e5 e5be a40d 06be cc9e ddbe 521b 0340
000001d0: 7d8d e23e 1332 f93e 8af6 e33e 6446 d2bc
000001e0: 32b9 0440 7ffa b9be 4fa9 1dbf c48b 183f
000001f0: c34f 33bf f114 3fbf 3071 913f 0b37 b43c
00000200: d894 00c0 16ec 803f 14db 35be 8296 8e3f
00000210: 65cd b53e 2206 43bf 0735 62be d1a5 8dbe
00000220: 956c e33c bc9e b93f 3670 553f 1c82 a03f
00000230: b0ca 813f ae08 6cbd b913 b9be 251b a1bf
00000240: 9cce bd3f 885a f8bd fa8b 1440 6839 88bf
00000250: 50e5 23bf 3cf0 923e 2c27 76bd 09f8 cfbf
00000260: 386c 9d3f df5e 00c0 cfe1 e1be 7f06 62bf
00000270: 5b48 50bf b542 f3bb 2cd3 983f 7d2c 0940
00000280: 6363 50be 39ac 3a3f 9d1f f9bd 0611 683f
00000290: 1a3d 8bbf db12 023f cef3 8c3f 8e8f a2bf
000002a0: 8c43 bc3e 6ec8 433e f47d 283f c0f2 00c0
000002b0: 614f 7a3e 7296 cdbe 5dea 9bbf ab69 2ebe
000002c0: 6f57 a63f 16bf 95bf 646b e3bf 1055 18bf
000002d0: 4d4c 553f edc7 18bf f998 d73d 806d 4a3f
000002e0: d8f7 fe3e 07f9 adbd d5a9 96be 297d 3e3f
000002f0: 5282 cfbf 0343 dd3e 3f00 20bf 97f8 9ebe
00000300: bee5 d23f 14f2 0d40 0259 953f 2843 95bf
00000310: 6392 e2be 4531 c3bf a984 bcbe 64a8 8cbf
00000320: abb6 233f dbfe 8cbf 9eff 623f 0129 8c3e
00000330: 87de 4bbf 6cb9 233f 9573 52bf 363b 4abf
00000340: 53ce 5ebd e713 84be 441d 0c3f 7ca0 6c3e
00000350: 6348 313f 331e b13f a365 af3e 730c 783f
00000360: 41cb ce3f 4045 a93f c2d1 3ebf d914 fd3f
00000370: 6b18 0dbf b428 b1bf bef1 c0be ff74 85bf
00000380: 6d5a af3f 2096 06bd f8a1 98bf 3bf6 43be
00000390: 1468 a7bf d107 3d3f 842d da3e 3216 5ebf
000003a0: 18a9 6fbc 410b 95bf 9215 723e 12fd 613f
000003b0: 82fe 60bf 5df6 953f 0df0 69bf 0e32 edbe
000003c0: 648c 07bf 2677 68bf 81eb 5b3f f188 85bf
000003d0: 15f1 bc3e f001 a43f 80cb 503f 0a50 80bf
000003e0: 756e a73f 84d2 293f 9605 93bf b7f2 a4bf
000003f0: 83d1 9dc0 00d6 4540 27d1 0fbf 82bf e23e
0.5912259 1.9376179 -0.6411728 0.113938674 1.0311378 -0.46338338 -1.21673 0.4718917
-0.6836767 1.6312748 1.6713148 1.5050329 -0.017768672 0.46706054 1.16435 -0.7036039
-2.4675245 -1.3586854 1.6619788 -0.7038928 1.3858607 -0.5226528 -0.7968196 -0.17557311
1.0326601 0.0074401274 0.0805703 -0.6443463 -0.5990414 -1.1971673 0.38454825 -0.96280617
-0.13265191 -1.5514312 0.42509198 -0.5567194 0.23829429 0.4817537 -0.85446995 1.2147174
-0.057900973 -0.5436717 0.6508486 -0.00427636 -0.25286987 0.95865643 0.19597399 2.5578966
-0.44175705 -1.4156218 1.2450413 1.0090438 1.0223746 -0.70465994 -2.3617015 0.879147
0.29292113 -0.24131148 -0.9814475 1.5838231 1.0189382 -1.5181026 1.1786839 -0.22824702
0.5019923 0.87603766 0.20202015 -1.0385462 0.10374871 1.2252427 -0.45456252 -1.2379615
0.69831765 -1.0135257 -1.5309206 1.0280753 0.7253717 0.27615908 -0.08289508 0.20365523
-1.1151974 0.4913572 0.212151 0.9357855 0.12962753 -0.053921286 -0.57490265 -1.2315915
1.6603457 0.5664643 -0.64999706 0.6332625 -0.16158132 -0.018119695 0.026983773 -0.8158187
-1.2375693 0.22722486 0.7740001 0.98333806 0.33067086 0.74337673 1.5840433 -0.027562706
-0.3918479 0.50020075 0.30303517 1.0008261 -0.03001746 -0.9900518 -0.83641005 -1.1332095
-0.44901657 -0.13091141 -0.43285215 2.0485425 0.44248572 0.48671016 0.44524032 -0.02566833
2.0738034 -0.36323926 -0.6158647 0.59588265 -0.7004358 -0.7464133 1.1362667 0.021998903
-2.0090847 1.0072048 -0.17759353 1.1139681 0.35508266 -0.7618123 -0.22090541 -0.2766557
0.027761737 1.4501567 0.83374345 1.2539706 1.013998 -0.057625465 -0.3614786 -1.2586409
1.4828677 -0.121266425 2.3210435 -1.0642519 -0.6402178 0.2869891 -0.06009595 -1.6247569
1.2298651 -2.0057905 -0.4411759 -0.8829116 -0.81360406 -0.0074237236 1.1939445 2.1433403
-0.20350413 0.7291904 -0.12164233 0.90650976 -1.0878022 0.5081002 1.1011903 -1.270006
0.36770284 0.19119427 0.6581719 -2.0148163 0.24444343 -0.40153843 -1.2180897 -0.17032497
1.2995433 -1.169894 -1.7767148 -0.59504795 0.8331955 -0.5968006 0.10527224 0.79073334
0.49798465 -0.08494764 -0.29426447 0.7440973 -1.6211646 0.43215188 -0.62500376 -0.31049034
1.6476362 2.2179003 1.1667788 -1.166112 -0.4425231 -1.5249411 -0.36819962 -1.0988889
0.63950604 -1.1015276 0.8867129 0.27375033 -0.79636425 0.63954806 -0.82207614 -0.789966
-0.054395985 -0.25796434 0.54732156 0.23108095 0.6925108 1.3837341 0.3425723 0.96893996
1.6155778 1.3224258 -0.74538815 1.9771987 -0.55115384 -1.3840547 -0.37684435 -1.0426329
1.3699471 -0.032858014 -1.1924429 -0.19136898 -1.3078637 0.7384005 0.4261285 -0.8675262
-0.014627717 -1.164406 0.23641041 0.8827678 -0.8788835 1.1715809 -0.91381913 -0.4632725
-0.52948594 -0.90806806 0.85906225 -1.0432416 0.3690268 1.2813091 0.81560516 -1.0024426
1.3080584 0.66336846 -1.148608 -1.2886571 -4.931825 3.0911865 -0.56178516 0.44286734

W f4 [32, 3298]
00000000: 4e05 9b3f dc63 e7bf 4152 703d f34b 1540
00000010: 223e ddbe d797 863f af53 babd 539f d5bf
00000020: e9b4 07be 291f 8a3f 7416 46bf 2119 b53f
00000030: 72cc 5dbe 59b2 273d 7727 79bf caac 8b3f
00000040: 78b8 573f bfed d73e 8ec3 953f 1bb4 6fbd
00000050: eda7 b2be 0b75 763f 89ff c7bf 5542 fd3e
00000060: 02ee 01c0 1b43 fbbd bf60 b4bf d3bf 0b3e
00000070: 7867 c13d cee4 c83f e943 7cbf af32 8b3e
00000080: 34d8 aabe 403d 0040 3da1 603f ed1d 073f
00000090: d1b6 eb3f fcc4 643f affe 2cbf 3d35 b63e
000000a0: 604d b23f 29c0 833f f575 60bf 99cf a93f
000000b0: e82b ef3f e20e 113e e0ff 4abf ca45 b83f
000000c0: 2d50 fd3e ea8c 63bf 518e a03e c876 ae3f
000000d0: 9dab b4bd 46fc 243f e72f 643f 51ed 633f
000000e0: 7425 37bf 12c2 8abf ff87 323e 540c 18bf
000000f0: a9b3 53bf f3f6 e3be 5459 8a3e 5c55 47c0
00000100: 0555 d93e 41c3 d7be 6464 3abf e8a9 eabe
00000110: eb68 38c0 137d 17c0 30d9 173f a4b7 fa3d
00000120: 93c5 8c3f e5ac f03f 170e 56bf 91b2 e6bf
00000130: 07bd 053e 9f4f cebe 6d47 f2be 11f7 c9bb
00000140: dc59 b8bf 0082 a43e b163 ecbf f3b7 9e3e
00000150: 45aa fe3e efa9 f73d 0871 663f ce31 0f40
00000160: fd8c 17bf 0a54 dabf aab0 35be 83ea 143e
00000170: fea2 b4be adf3 333e 5932 153f 2905 3a3f
00000180: 053c b7be 480e 893d 2104 b4bf 2f02 77be
00000190: 7c34 75bf 41b6 f7bf 2287 523c 24cb d53f
000001a0: 7827 0abe 2e90 933f 7ec0 e53e 9dd6 e0be
000001b0: a2e7 37bc ec1e 4640 69a1 81bc 2489 b43e
000001c0: bc65 2bbe 9f0d 253e 723e 6b3f af78 35c0
000001d0: 91f6 f03e 9f22 403f 8648 d1be 81eb 37be
000001e0: 9c02 67bf 4e5b 9ebf 93a4 5e3f 9dd0 ad3f
000001f0: 5278 3bbf a956 2a3f 5e0e 593f 5fdc 8d3f
00000200: 0883 5b3d ca51 5a3f d88b 733e 3995 84ba
00000210: df2d a3bf ff7f 12be 5db7 1d3e 10ff d5bd
00000220: 88b3 8c3f e5a7 cd3f 68a6 5f3f f87f edbf
00000230: dfb7 05c0 a156 553f a8b1 333e 0e9e 813e
00000240: b553 6ebe 4751 eb3e 05d6 e8bd e5de 363f
00000250: 0072 843f 3dbe 023f 8856 bdbe cbc8 913f
00000260: 09eb b53e f4fe ac3d 0ef8 4ebd a588 49bf
00000270: a371 25c0 192c c93f 5129 053f a221 82bf
00000280: b4be 71bf ac49 97be 2005 eabd 5dea a9bb
00000290: e12b 8dbf 31c7 1f40 1c14 71bf 1137 73bf
000002a0: b85b ad3f 8dc1 c23f 1558 68be 9872 febc
000002b0: 46e8 a83e e051 843f eaa3 ffbf c182 cdbf
000002c0: 5b75 90bf 3560 923f 3d2c 9b3f 4287 063f
000002d0: c321 d9be a6d9 07c0 87f2 993f 2ab7 0abd
000002e0: 8e19 093f 0116 b2be 4d3e 3d3f b208 173f
000002f0: fb92 c6be 9716 ef3e 765c 1dbe 7150 8c3e
00000300: ed5f c43f 83b5 d93f 6d99 79be 603e 4b3e
00000310: 9e7f 4ebe dfb3 4c3f 0b8e 033e d70e df3e
00000320: bd85 fa3e f689 b53e 6c4f c9be 1bde b13b
00000330: 8d45 963f 73a2 24be 31fb 25bf d500 833f
00000340: 540a c43e 85a2 af3e 91bd 763f 44a6 7a3f
00000350: 1991 d23f a36d cabe 0383 d63e 5c2c f4be
00000360: 4210 9abd 3c07 97be 1232 dd3e af9d 513f
00000370: b10f 04be b4a3 1e3f 1fa2 153e f4cf b63f
00000380: e015 db3e f7fc 14bc 3ff9 d63f 7b56 703e
00000390: 74cb 06bf efeb ee3f 2158 b4be 7240 063e
000003a0: 7676 b13f 5876 3b3f e00f 5b3f bd78 7abf
000003b0: c2b7 86ba 5d53 b23b 7e95 3b3f 5e7c 5b3e
000003c0: 7262 8cbf 91ba 71bf 30ce 9e3c d5cf a13f
000003d0: 8f01 acbf 1e33 803f 825d 433f 4a5e 21c0
000003e0: bceb 093e 7dc7 323f 193e 293f bd7c cc3e
000003f0: 2672 b2be 611d 983f 6595 253e c46d 06c0
1.2110994 -1.807735 0.058672193 2.3327606 -0.43211466 1.0515088 -0.09097993 -1.6689247
-0.13252605 1.0790759 -0.7737801 1.4148294 -0.21660021 0.04094157 -0.97325844 1.0912106
0.8426585 0.42173573 1.1700304 -0.05852137 -0.34893742 0.96272343 -1.5624858 0.4946467
-2.0301518 -0.12268659 -1.4092025 0.13647394 0.09443563 1.5694826 -0.9854112 0.27187106
-0.33368075 2.0037384 0.8774603 0.5278004 1.8415166 0.89363074 -0.67576116 0.35587493
1.3929863 1.0293018 -0.8767999 1.3266479 1.8685274 0.14165834 -0.79296684 1.4396298
0.49475232 -0.8888689 0.3135858 1.3629999 -0.08821795 0.6444744 0.89135593 0.8903399
-0.71541524 -1.0840476 0.17434691 -0.5939381 -0.82696015 -0.44524345 0.27021277 -3.114585
0.42447677 -0.42141154 -0.72809434 -0.45832753 -2.8814037 -2.367009 0.59315777 0.12242058
1.0997795 1.8802763 -0.8361525 -1.8023244 0.1306039 -0.4029512 -0.4732012 -0.006163486
-1.4402423 0.32130432 -1.8467923 0.30999717 0.4973928 0.12092959 0.9001622 2.2374148
-0.59199506 -1.7056897 -0.17743173 0.14542584 -0.35280603 0.17573424 0.5827995 0.72664124
-0.3578798 0.06692177 -1.406376 -0.24121927 -0.9578321 -1.9352494 0.012849601 1.6702619
-0.13491619 1.1528375 0.44873422 -0.43913737 -0.011224659 3.0956373 -0.015824037 0.3526088
-0.16738027 0.16118477 0.9189216 -2.835491 0.47063115 0.7505283 -0.40875643 -0.17960931
-0.90238357 -1.2371614 0.8696987 1.3579289 -0.7323047 0.6653848 0.8478755 1.1082877
0.053591758 0.8528105 0.23783815 -0.0010115273 -1.2748374 -0.14306639 0.15401979 -0.1044904
1.0992289 1.6066862 0.8736329 -1.8554678 -2.0893476 0.8333531 0.17548239 0.253159
-0.23274119 0.45960447 -0.11368946 0.7143386 1.034729 0.5107153 -0.3698008 1.1389402
0.3553088 0.08447066 -0.050529532 -0.7872413 -2.5850608 1.5716583 0.5201617 -1.0166514
-0.94431615 -0.29548395 -0.11426759 -0.005185409 -1.1029016 2.4965327 -0.9417131 -0.950059
1.3543615 1.5215317 -0.2268985 -0.031060502 0.3298971 1.0337486 -1.9971898 -1.6055528
-1.1285814 1.143561 1.2122875 0.5255014 -0.4240857 -2.1226592 1.2027138 -0.033866085
0.5355462 -0.34782413 0.7392319 0.58997643 -0.38784012 0.46696922 -0.15367302 0.27405122
1.5341774 1.7008518 -0.24374934 0.19848013 -0.2016587 0.7996196 0.12847154 0.4356601
0.4893016 0.35456818 -0.39318407 0.0054280884 1.1739975 -0.16077594 -0.6483641 1.0234629
0.3828913 0.3430368 0.96383005 0.9790995 1.645053 -0.3953677 0.4189683 -0.47690094
-0.07522632 -0.29497707 0.43202263 0.8188123 -0.12896611 0.6196854 0.14612626 1.4282212
0.42790127 -0.009093515 1.6794814 0.2347049 -0.52654195 1.8665751 -0.35223487 0.13110521
1.3864276 0.73227453 0.855711 -0.9784048 -0.0010278153 0.0054420666 0.7327498 0.21434161
-1.0967543 -0.944253 0.019385427 1.264155 -1.3437976 1.00156 0.76314557 -2.52138
0.13468832 0.69835645 0.6611038 0.39938918 -0.34852713 1.1883966 0.1617027 -2.1004496

b f4 [3298]
00000000: 7337 8fbf c229 953f d71e 343f f74b 293f
00000010: 07a9 ed3e 7e11 4abf 7602 01c0 8a40 243f
00000020: dc87 b5bf fbb2 1f40 5194 cd3d 5303 c93f
00000030: 58fb 2f3e 6a0d 12bf 23ac 073f 15bf 10be
00000040: 1db8 7a3f b601 70bf 1d1f dc3e 9751 973e
00000050: 976b d0be 38d0 7e3f 98ff a63e 26e2 babe
00000060: 402a c7bf aa6f 7b3f d203 0240 c3f5 a63f
00000070: 3137 f5be 5ae3 e33f fee7 fdbe 97d0 16bf
00000080: ae1e aabf 4d17 9bbf 62f1 393e d4ed e2bf
00000090: b567 57be 5363 aabf 9f11 203f 6101 b63f
000000a0: edc6 9e3e 1e63 d43e 6d4c 38bf 341a 87be
000000b0: a43b d73e bac6 903e 2852 543d e489 0e3f
000000c0: eb5a 0040 49d0 b1be c46e a7bf 5f51 8ebe
000000d0: 5e56 b03f c72e f6bf 909c 16c0 1880 d33f
000000e0: 84d9 143f a0eb 7d3f 7fd7 abbe bd01 b13f
000000f0: ed43 b53f a1b4 0240 3e06 1dbd 68fd b8bf
00000100: 450c dbbf a83f 25bf 35ec 403f c208 0e40
00000110: 0649 3a3f 4a25 003f c046 ddbd f623 953f
00000120: 9b43 833e 1ea6 413f 35db 27bf bc3e ccbe
00000130: 3b5b 5b3d bc9a 11bf adad 573f fcbb 0c3e
00000140: a8d3 57bf d6bc 0dbe 80ff 793e 6c42 b03f
00000150: 0479 fc3f b094 7ebe 8e31 e83f 7d63 68bf
00000160: b77d 3d3f 25a1 b5be 1949 ad3e bd2e e3be
00000170: 25b3 b03f e070 663f 20ac 7c3f 6776 d83e
00000180: b121 b4be de36 94bf 7c20 633d f3f5 a83f
00000190: 4fb4 4f3f 3df4 9a3f 76e4 2840 1947 74be
000001a0: f810 3c3f 996e 9abf 3cb4 c83d 83f0 0bbe
000001b0: 27ec 17bf d031 1f3f b858 833f 6be2 f1be
000001c0: 564a 133e b627 803e d6b2 883f 0120 b9bf
000001d0: ca73 a2be ff1a a23f 1a3e 553d fdc5 693f
000001e0: 9b7e 07bf df73 c83f ada7 a6bf d42a 083f
000001f0: 4dca d53f 4419 e33e 612e c23e c5dd bebe
00000200: 129b 483f 8734 bbbe 1ace 8cbf dae7 9dbf
00000210: 4678 a7bf 3aae b6be 57ec bc3f 64c5 7c3f
00000220: 1073 15be ed5c 03bd ec92 bb3d c88e 9ebf
00000230: 758e 603f cde4 403f 3c98 8dbf fc96 1940
00000240: 62c4 aebe 4d17 263e c24d b53f 6388 b53f
00000250: 467e 873e 6060 0bbe a59e 97bd 72b3 adbe
00000260: eea4 0c3f bc89 acbd 9d45 083f e089 7cbf
00000270: 88eb 2bbe 76f9 32bf 516c c93e d327 f3bf
00000280: 50b5 403e d953 11bd 661c 373f dd71 ae3f
00000290: 8af1 bb3e 084d 6fbf 1ccf c5be 9079 3cbf
000002a0: 6a9f 8fbf b6ff 3ebf c83c 77bf da70 71be
000002b0: 55f1 e03f 1bae 61be a9d6 113f d6d6 9e3f
000002c0: 50ca 5d3e bb11 42bf a568 65bd a607 f93e
000002d0: d468 95be b610 5a3f 4111 99bf 1df2 f63e
000002e0: e393 083f b18b b9be d4e3 dcbf e5b8 75bf
000002f0: dfa6 0b3f 2fad 1740 60c5 7c3e 9035 193f
00000300: a2e9 21bf 82ef 9c3f 2298 043e eb81 663f
00000310: e3d3 573f 95c4 7dbe 8481 2dbf f8ec 9f3f
00000320: 8618 1c3f 6447 003e 2825 74be 1c8c 44bf
00000330: 29ad 24be 884c ba3f 8567 e93f d5e5 a63f
00000340: d70e 1d3e 930c bd3f 6d29 e63e 8f67 bebf
00000350: 671f aabf a8cf 443e 8d2f 743f 41de d5be
00000360: a84c b0bf 9ef3 f73f fe1c 3bbe cdd8 e0be
00000370: 863d cabf a004 0a3f f1ee e63e 98e3 643f
00000380: 5399 d7be 2d45 143e 768b 513e a6ac 6a3f
00000390: c14e 0cc0 d6fe ed3d b473 a8bf 3a97 613f
000003a0: 18cf 1a3f 8e83 35be a5d3 13bf 3a82 3fbf
000003b0: 4b62 f4be f953 bfbf fc8a 78bf dc8f 143f
000003c0: 06ea 833e 324b 0b3d 3412 abbd 4f01 bb3f
000003d0: 2257 b7bd 9033 843f 00c1 b73f 0606 aebe
000003e0: c8f3 de3e 0eef dabf b502 583f 9a24 a4bd
000003f0: 1dbc e2be 98d4 dcbf a75c 663f bc0f d2bd
-1.1188797 1.1653368 0.7035956 0.6613154 0.4641802 -0.7893294 -2.0157752 0.6416098
-1.4182086 2.495299 0.10038055 1.570414 0.17185724 -0.5705172 0.52997035 -0.14135392
0.97937185 -0.9375261 0.42992488 0.29554436 -0.40707085 0.99536467 0.32616878 -0.36500663
-1.5559769 0.9821726 2.0314832 1.304375 -0.4789367 1.7803757 -0.49591058 -0.5891203
-1.3290613 -1.2116486 0.18158486 -1.7728829 -0.21035655 -1.3311561 0.6252689 1.4219171
0.31011143 0.4148187 -0.71991616 -0.2638718 0.4203769 0.28276616 0.051836163 0.55679154
2.0055492 -0.3472922 -1.3080678 -0.27796456 1.3776357 -1.9233025 -2.3533058 1.6523466
0.581444 0.9918766 -0.33562848 1.3828655 1.4161354 2.0422747 -0.03833603 -1.4452333
-1.7113119 -0.64550257 0.75360423 2.2192845 0.72767675 0.500569 -0.1080451 1.16516
0.25637516 0.756441 -0.6556886 -0.39891613 0.0535538 -0.5687673 0.84249383 0.13743585
-0.84307337 -0.13841566 0.24413872 1.377027 1.9724431 -0.24861407 1.8140123 -0.9077681
0.7401995 -0.35474506 0.33844832 -0.44371596 1.380467 0.90015984 0.9870014 0.42277834
-0.35181955 -1.1579244 0.0554509 1.3200058 0.81134504 1.2105786 2.6389441 -0.23855247
0.7346339 -1.2065002 0.09800002 -0.13665967 -0.59344715 0.6218538 1.026145 -0.47243056
0.14383826 0.25030297 1.0679576 -1.4462892 -0.31728965 1.2664489 0.052061178 0.9131773
-0.5292756 1.5660361 -1.301992 0.5319035 1.6702362 0.44355214 0.3792601 -0.37278572
0.7836162 -0.36563513 -1.1000397 -1.233638 -1.308358 -0.356798 1.4759625 0.98738694
-0.14594674 -0.032071043 0.091588825 -1.2387323 0.8771737 0.7534912 -1.1062083 2.3998404
-0.34134203 0.16219826 1.4164355 1.4182247 0.26463526 -0.13610983 -0.07403306 -0.33925968
0.5493916 -0.08424708 0.5323122 -0.9864788 -0.16789067 -0.699119 0.3934045 -1.8996528
0.18819165 -0.035480354 0.7152771 1.3628498 0.36707717 -0.93476915 -0.38634574 -0.7362299
-1.1220524 -0.74608934 -0.9657712 -0.23578206 1.7573649 -0.22039072 0.5696817 1.2409313
0.21659207 -0.75808305 -0.056008 0.48638648 -0.2918154 0.8518175 -1.195839 0.48231593
0.5335066 -0.3623939 -1.7257028 -0.9598525 0.545515 2.3699453 0.24684668 0.59847355
-0.6324712 1.2260592 0.12948659 0.9004199 0.8430769 -0.24782021 -0.6777575 1.2494192
0.6097492 0.12527233 -0.23842299 -0.7677629 -0.1608168 1.4554605 1.8234717 1.3038889
0.15337692 1.4769462 0.4495348 -1.4875354 -1.3290833 0.1921984 0.95385057 -0.4177113
-1.3773394 1.9371221 -0.18272778 -0.43915406 -1.5800025 0.5391331 0.45104173 0.8940978
-0.42109165 0.14479513 0.20463356 0.9166969 -2.1923068 0.11620872 -1.316031 0.8812138
0.6047225 -0.17725965 -0.5774482 -0.74808085 -0.47731242 -1.4947501 -0.97087073 0.5803201
0.25764483 0.03400726 -0.08353081 1.4609774 -0.08952166 1.0328236 1.4355774 -0.3398897
0.43545365 -1.7104204 0.8437913 -0.08014794 -0.44284144 -1.7252378 0.89985126 -0.10256907

C.weight f4 [3298, 16]
00000000: 2537 e8bd 8426 0bc0 b25b 1b3f ee88 ccbf
00000010: 84f0 003f ce54 123f d737 093e cb11 50bf
00000020: 4cac 313f 52d9 74be 4552 643f b157 13bf
00000030: 7edb 1640 2874 90bf 6817 903f a559 373f
00000040: 4688 763f 544c d13f f916 03bf 1faf 90be
00000050: 8f16 65bd 6202 e9bf 57c7 a93e c331 4cbf
00000060: b1e2 813f 669a 1840 fb0f 903f 1e85 093f
00000070: 74b5 1340 48fb 25bc 93c2 613e 8a1a 59be
00000080: df8d 17bf bdf5 0bbf 4885 e5bf 7624 59bf
00000090: d466 d5be 855e 25bf b6a3 903e 9736 c3be
000000a0: aa8b 89be f19f 2f3f 8ab9 173c c3e4 28bf
000000b0: 179e ce3e bff3 ff3e 1ec5 a93f e8e0 cb3f
000000c0: f74c 973f 907f bf3c 5825 10bf 6816 3bbe
000000d0: f1ab 083e 8df2 d7be cba7 cfbe cfd3 c73e
000000e0: 0f69 07bf 3f7c f4be ce34 b8be a71b 4c3f
000000f0: f6d4 1abe 4e26 c83e 98f9 9d3e ca9b 1dbf
00000100: d3d0 12bf 753a 0cbf 1af6 32bf 8f7e 96bf
00000110: 62d1 bebe 2eb2 343f f18f f1bf 5489 72be
00000120: a3f4 dfbf 4bae 943e 0df0 403f 74fe c83e
00000130: b5f1 ac3e 24f9 00bf 830a ea3e 5365 afbd
00000140: 3228 e8bf fa9b 30bf 85fa debe 6fbb c5be
00000150: 89fd 8bbe 7ff4 33bf 3d0e e53e 0efc 763d
00000160: 3371 42bf eafd 46bf 6892 053e 96e7 833c
00000170: 74ef 883f 5fc6 3fbf 9057 9bbe 20b9 8a3f
00000180: 7163 913f f2b6 e7be a654 d23e 7659 28bf
00000190: 945c 07bd bd9d 7ebe e1ac d33f beb9 e73f
000001a0: 089b 2abe 0668 2dbf 927e c6bf 536c 6bbe
000001b0: 0951 aabe b922 9d3f a600 d1be 9821 4cbf
000001c0: 72ad 49bf c24d 383f 7ad3 6d3e daf3 55be
000001d0: dcb3 11bf eb7b 6a3f 9a96 013f a8c1 01bf
000001e0: ec2f 67bf 71d9 d43f 8792 183f dfcf 37bf
000001f0: b2e4 8abd b989 5abf 7e01 e93e eba1 9a3f
00000200: 5bd3 a23f a413 7dbf 74e7 aabf d07b cc3e
00000210: 4a82 443f 6c3b 6e3f 16f5 2d3f 8193 013f
00000220: 7564 c63e 6479 4c3e 06b5 fdbf e845 acbe
00000230: 45d8 9c3f 45f9 253f 53f0 833f 8b43 973e
00000240: f149 063f b844 713f 79ab b6bf ed9d 663f
00000250: ecb7 9cbf 43a5 b5bf 8ecb 2cbe 29b0 3ebd
00000260: 81a2 ea3e 05b5 ab3c 4482 5d3f 3d95 873f
00000270: 4d75 623d 5ee9 503f c22c 873e 0754 7b3f
00000280: 277b eabd b62b 473f 33c3 4fbf c50b c2be
00000290: 1910 f6be d96e 493f 6534 753f e9ad a9be
000002a0: dc46 d4bf ce12 8a3f 5f16 303f 7376 0abe
000002b0: 1f11 d7bf fb40 493e 6b0f 2e3f 421e 2ebf
000002c0: 52ed d0be 45dd f03e cad3 d93f 32cb f63f
000002d0: 39b0 9b3e 4c22 b33f f2be 1d3f 93cb 8fbe
000002e0: a0b9 32bf bbd2 13bf cbc4 2cbf 087e b73e
000002f0: ebcc 603e 4eea 38bf a55d 1dbf a93e 19bf
00000300: ab48 c4bf 675b c03f df39 4d3f 3645 fdbe
00000310: 63bd 1ebf b30d d3bf 807b f33e 9416 5b3f
00000320: 7377 093f e9c1 863f 2921 aebf dd80 c0bd
00000330: c396 36be e0b5 1d3e 4d48 38bf 7f30 0fbf
00000340: f074 3b3d 6f04 0e3f 0090 cbbe 3c92 023f
00000350: 57b9 c8bf 84a4 fcbe 5b66 f43e 476a ac3f
00000360: a663 f1bf a1cb 0f3f 1136 4dbd 095f 64be
00000370: f982 b3be 7844 353e e058 09bc e583 c4bf
00000380: 4c41 17bf 1bd4 29bf 80ba a63f 1d2e f8bc
00000390: c2f1 423f 1431 c6be 688d 713f 48af 203e
000003a0: d81f ba3f 4417 0a3f b92b 453f 92ea 90bd
000003b0: 396e dc3e 00fa 59bf 2482 16be 8ed5 57bf
000003c0: 4e96 d3bf 3862 883f 28d5 6abf 6b12 c63f
000003d0: 3ac9 173f 5250 f8bc 5d22 1240 f1e9 793f
000003e0: 9531 9bbe bf52 26bf 5505 2d40 5f84 9b3f
000003f0: dd32 1340 c1a0 3cbf 408e dfbe 9d2c 15c0
-0.11338643 -2.1742258 0.6068679 -1.5979288 0.50367 0.5716065 0.13400207 -0.8127715
0.6940353 -0.23911026 0.89188033 -0.5755568 2.3571467 -1.1285448 1.1257143 0.7162116
0.96301687 1.6351418 -0.5120693 -0.28258607 -0.055929717 -1.8203852 0.33159897 -0.7976343
1.0147306 2.3844237 1.1254877 0.53718746 2.30795 -0.010130711 0.2204688 -0.2120153
-0.59200853 -0.5467184 -1.7931299 -0.8482126 -0.41680014 -0.6459735 0.28249902 -0.38127586
-0.26864368 0.68603426 0.009260545 -0.6597406 0.40354988 0.4999065 1.326328 1.5928011
1.1820363 0.023376256 -0.5630698 -0.18270266 0.1334684 -0.4217724 -0.40557703 0.39028785
-0.5289468 -0.47751042 -0.35977787 0.79729694 -0.151203 0.39091724 0.30854487 -0.6156584
-0.5734989 -0.547767 -0.6990677 -1.1757373 -0.3726912 0.7058438 -1.8872052 -0.23685199
-1.7496532 0.29039225 0.7536629 0.39256632 0.33778158 -0.5038016 0.45711145 -0.08564248
-1.8137267 -0.68988 -0.43550506 -0.38619563 -0.2734187 -0.70294946 0.44737425 0.06029897
-0.7595398 -0.7773119 0.13044131 0.01610164 1.0698075 -0.74912065 -0.30340242 1.0837746
1.1358472 -0.45256764 0.41080207 -0.65761507 -0.033047274 -0.2486486 1.6537133 1.8103559
-0.16660702 -0.6773685 -1.5507376 -0.22990541 -0.3326495 1.2276222 -0.40820807 -0.7973876
-0.7878028 0.7199365 0.23225203 -0.20893803 -0.5691507 0.91595334 0.50620425 -0.5068612
-0.903075 1.6628858 0.59598583 -0.7180156 -0.067819014 -0.853664 0.4550895 1.2080663
1.272075 -0.98858094 -1.3351884 0.3993821 0.76761305 0.9305942 0.67952096 0.506157
0.38748518 0.19968182 -1.9820869 -0.33647084 1.22535 0.6483348 1.0307716 0.2954372
0.52456576 0.9424548 -1.4271079 0.90084726 -1.2243629 -1.4191059 -0.16874525 -0.04655472
0.45827106 0.02096034 0.86526895 1.0592419 0.055287648 0.8160609 0.26401335 0.9817509
-0.11449271 0.7780107 -0.81157225 -0.37899604 -0.48059157 0.78684765 0.9578307 -0.33140495
-1.6584125 1.0786989 0.68784136 -0.13521747 -1.68021 0.19653694 0.67992276 -0.6801492
-0.4080606 0.47043815 1.7017758 1.928076 0.30407885 1.3994842 0.61619484 -0.28085002
-0.6981449 -0.57743424 -0.6748778 0.35838342 0.2195317 -0.7223252 -0.61471015 -0.59861237
-1.5334677 1.5027894 0.8016643 -0.49466866 -0.6200773 -1.6488556 0.4755516 0.85581326
0.5369789 1.0527927 -1.360387 -0.09399579 -0.17830949 0.15401411 -0.7198532 -0.55933374
0.045765817 0.55475515 -0.397583 0.51004386 -1.5681561 -0.49344265 0.4773434 1.3469933
-1.8858535 0.5617009 -0.05010039 -0.22301878 -0.35060862 0.177019 -0.008383006 -1.5352751
-0.5908401 -0.6633927 1.3025665 -0.030295426 0.76150143 -0.3870932 0.94356394 0.15691864
1.4540968 0.5394175 0.7701984 -0.07075991 0.43052843 -0.85147095 -0.14698082 -0.84310234
-1.6530244 1.0654974 -0.917315 1.5474371 0.5929142 -0.030311737 2.2833474 0.9762259
-0.30311266 -0.6497001 2.7034504 1.2149771 2.2999794 -0.7368279 -0.43663216 -2.330848
